{"class_name": "Model", "config": {"name": "model_1", "layers": [{"name": "input_1", "class_name": "InputLayer", "config": {"batch_input_shape": [null, 160, 160, 16], "dtype": "float32", "sparse": false, "name": "input_1"}, "inbound_nodes": []}, {"name": "lambda_1", "class_name": "Lambda", "config": {"name": "lambda_1", "trainable": true, "dtype": "float32", "function": ["4wEAAAAAAAAAAQAAAAMAAABTAAAAcwwAAAB0AGoBfABkAoMCUwApA07pAQAAAOn/////KQLaAUva\nC2V4cGFuZF9kaW1zKQHaAXipAHIGAAAA+kIvaG9tZS96ZGVlbm8vUHJvamVrdC9saWRhci1neW0v\nbGlkYXJfZ3ltL2FnZW50L3N1cGVydmlzZWRfYWdlbnQucHnaCDxsYW1iZGE+QwAAAHMAAAAA\n", null, null], "function_type": "lambda", "output_shape": null, "output_shape_type": "raw", "arguments": {}}, "inbound_nodes": [[["input_1", 0, 0, {}]]]}, {"name": "conv3d_1", "class_name": "Conv3D", "config": {"name": "conv3d_1", "trainable": true, "dtype": "float32", "filters": 2, "kernel_size": [4, 4, 4], "strides": [1, 1, 1], "padding": "same", "data_format": "channels_last", "dilation_rate": [1, 1, 1], "activation": "relu", "use_bias": true, "kernel_initializer": {"class_name": "VarianceScaling", "config": {"scale": 1.0, "mode": "fan_avg", "distribution": "uniform", "seed": null, "dtype": "float32"}}, "bias_initializer": {"class_name": "Zeros", "config": {"dtype": "float32"}}, "kernel_regularizer": {"class_name": "L1L2", "config": {"l1": 0.0, "l2": 0.0010000000474974513}}, "bias_regularizer": null, "activity_regularizer": null, "kernel_constraint": null, "bias_constraint": null}, "inbound_nodes": [[["lambda_1", 0, 0, {}]]]}, {"name": "conv3d_2", "class_name": "Conv3D", "config": {"name": "conv3d_2", "trainable": true, "dtype": "float32", "filters": 4, "kernel_size": [4, 4, 4], "strides": [1, 1, 1], "padding": "same", "data_format": "channels_last", "dilation_rate": [1, 1, 1], "activation": "relu", "use_bias": true, "kernel_initializer": {"class_name": "VarianceScaling", "config": {"scale": 1.0, "mode": "fan_avg", "distribution": "uniform", "seed": null, "dtype": "float32"}}, "bias_initializer": {"class_name": "Zeros", "config": {"dtype": "float32"}}, "kernel_regularizer": {"class_name": "L1L2", "config": {"l1": 0.0, "l2": 0.0010000000474974513}}, "bias_regularizer": null, "activity_regularizer": null, "kernel_constraint": null, "bias_constraint": null}, "inbound_nodes": [[["conv3d_1", 0, 0, {}]]]}, {"name": "max_pooling3d_1", "class_name": "MaxPooling3D", "config": {"name": "max_pooling3d_1", "trainable": true, "dtype": "float32", "pool_size": [2, 2, 2], "padding": "valid", "strides": [2, 2, 2], "data_format": "channels_last"}, "inbound_nodes": [[["conv3d_2", 0, 0, {}]]]}, {"name": "conv3d_3", "class_name": "Conv3D", "config": {"name": "conv3d_3", "trainable": true, "dtype": "float32", "filters": 8, "kernel_size": [4, 4, 4], "strides": [1, 1, 1], "padding": "same", "data_format": "channels_last", "dilation_rate": [1, 1, 1], "activation": "relu", "use_bias": true, "kernel_initializer": {"class_name": "VarianceScaling", "config": {"scale": 1.0, "mode": "fan_avg", "distribution": "uniform", "seed": null, "dtype": "float32"}}, "bias_initializer": {"class_name": "Zeros", "config": {"dtype": "float32"}}, "kernel_regularizer": {"class_name": "L1L2", "config": {"l1": 0.0, "l2": 0.0010000000474974513}}, "bias_regularizer": null, "activity_regularizer": null, "kernel_constraint": null, "bias_constraint": null}, "inbound_nodes": [[["max_pooling3d_1", 0, 0, {}]]]}, {"name": "max_pooling3d_2", "class_name": "MaxPooling3D", "config": {"name": "max_pooling3d_2", "trainable": true, "dtype": "float32", "pool_size": [2, 2, 2], "padding": "valid", "strides": [2, 2, 2], "data_format": "channels_last"}, "inbound_nodes": [[["conv3d_3", 0, 0, {}]]]}, {"name": "conv3d_4", "class_name": "Conv3D", "config": {"name": "conv3d_4", "trainable": true, "dtype": "float32", "filters": 16, "kernel_size": [4, 4, 4], "strides": [1, 1, 1], "padding": "same", "data_format": "channels_last", "dilation_rate": [1, 1, 1], "activation": "relu", "use_bias": true, "kernel_initializer": {"class_name": "VarianceScaling", "config": {"scale": 1.0, "mode": "fan_avg", "distribution": "uniform", "seed": null, "dtype": "float32"}}, "bias_initializer": {"class_name": "Zeros", "config": {"dtype": "float32"}}, "kernel_regularizer": {"class_name": "L1L2", "config": {"l1": 0.0, "l2": 0.0010000000474974513}}, "bias_regularizer": null, "activity_regularizer": null, "kernel_constraint": null, "bias_constraint": null}, "inbound_nodes": [[["max_pooling3d_2", 0, 0, {}]]]}, {"name": "conv3d_5", "class_name": "Conv3D", "config": {"name": "conv3d_5", "trainable": true, "dtype": "float32", "filters": 32, "kernel_size": [4, 4, 4], "strides": [1, 1, 1], "padding": "same", "data_format": "channels_last", "dilation_rate": [1, 1, 1], "activation": "relu", "use_bias": true, "kernel_initializer": {"class_name": "VarianceScaling", "config": {"scale": 1.0, "mode": "fan_avg", "distribution": "uniform", "seed": null, "dtype": "float32"}}, "bias_initializer": {"class_name": "Zeros", "config": {"dtype": "float32"}}, "kernel_regularizer": {"class_name": "L1L2", "config": {"l1": 0.0, "l2": 0.0010000000474974513}}, "bias_regularizer": null, "activity_regularizer": null, "kernel_constraint": null, "bias_constraint": null}, "inbound_nodes": [[["conv3d_4", 0, 0, {}]]]}, {"name": "conv3d_6", "class_name": "Conv3D", "config": {"name": "conv3d_6", "trainable": true, "dtype": "float32", "filters": 1, "kernel_size": [4, 4, 4], "strides": [1, 1, 1], "padding": "same", "data_format": "channels_last", "dilation_rate": [1, 1, 1], "activation": "linear", "use_bias": true, "kernel_initializer": {"class_name": "VarianceScaling", "config": {"scale": 1.0, "mode": "fan_avg", "distribution": "uniform", "seed": null, "dtype": "float32"}}, "bias_initializer": {"class_name": "Zeros", "config": {"dtype": "float32"}}, "kernel_regularizer": {"class_name": "L1L2", "config": {"l1": 0.0, "l2": 0.0010000000474974513}}, "bias_regularizer": null, "activity_regularizer": null, "kernel_constraint": null, "bias_constraint": null}, "inbound_nodes": [[["conv3d_5", 0, 0, {}]]]}, {"name": "conv3d_transpose_1", "class_name": "Conv3DTranspose", "config": {"name": "conv3d_transpose_1", "trainable": true, "dtype": "float32", "filters": 1, "kernel_size": [4, 4, 4], "strides": [4, 4, 4], "padding": "same", "data_format": "channels_last", "activation": "linear", "use_bias": true, "kernel_initializer": {"class_name": "VarianceScaling", "config": {"scale": 1.0, "mode": "fan_avg", "distribution": "uniform", "seed": null, "dtype": "float32"}}, "bias_initializer": {"class_name": "Zeros", "config": {"dtype": "float32"}}, "kernel_regularizer": {"class_name": "L1L2", "config": {"l1": 0.0, "l2": 0.0010000000474974513}}, "bias_regularizer": null, "activity_regularizer": null, "kernel_constraint": null, "bias_constraint": null}, "inbound_nodes": [[["conv3d_6", 0, 0, {}]]]}, {"name": "lambda_2", "class_name": "Lambda", "config": {"name": "lambda_2", "trainable": true, "dtype": "float32", "function": ["4wEAAAAAAAAAAQAAAAMAAABTAAAAcwwAAAB0AGoBfABkAYMCUwApAk7pBAAAACkC2gFL2gdzcXVl\nZXplKQHaAXipAHIFAAAA+kIvaG9tZS96ZGVlbm8vUHJvamVrdC9saWRhci1neW0vbGlkYXJfZ3lt\nL2FnZW50L3N1cGVydmlzZWRfYWdlbnQucHnaCDxsYW1iZGE+TwAAAHMAAAAA\n", null, null], "function_type": "lambda", "output_shape": null, "output_shape_type": "raw", "arguments": {}}, "inbound_nodes": [[["conv3d_transpose_1", 0, 0, {}]]]}], "input_layers": [["input_1", 0, 0]], "output_layers": [["lambda_2", 0, 0]]}, "keras_version": "2.1.3-tf", "backend": "tensorflow"}